…
    "pin_mem": true,
    "rank": 0,
    "resume": "",
    "resume_full_weights": false,
    "resume_weights": false,
    "seed": 0,
    "start_epoch": 0,
    "text_model_name": "bert-base-uncased",
    "use_adam": true,
    "use_clip": false,
    "use_embeds": true,
    "wandb_id": null,
    "warmup_epochs": 40,
    "weight_decay": 0.05,
    "world_size": 4
}
[01:00:23.039941] Job dir: /ibex/user/slimhy/Shape2VecSet/code
[01:00:23.041080] |Train| size = [316236]
[01:00:23.041426] |Valid| size = [4160]
[01:00:30.468146] Model = MLPLatentMapperBottlenecked(
  (editor): MLP(
    (net): Sequential(
      (0): Linear(in_features=4864, out_features=512, bias=True)
      (1): BatchNorm1d(512, eps=1e-05, momentum=0.1, affine=True, track_running_stats=True)
      (2): ReLU(inplace=True)
      (3): Linear(in_features=512, out_features=4096, bias=True)
      (4): BatchNorm1d(4096, eps=1e-05, momentum=0.1, affine=True, track_running_stats=True)
      (5): ReLU(inplace=True)
      (6): Linear(in_features=4096, out_features=4096, bias=True)
      (7): BatchNorm1d(4096, eps=1e-05, momentum=0.1, affine=True, track_running_stats=True)
      (8): ReLU(inplace=True)
      (9): Linear(in_features=4096, out_features=4096, bias=False)
    )
  )
  (shape_encoder): MLP(
    (net): Sequential(
      (0): Linear(in_features=4096, out_features=4096, bias=True)
      (1): BatchNorm1d(4096, eps=1e-05, momentum=0.1, affine=True, track_running_stats=True)
      (2): ReLU(inplace=True)
      (3): Linear(in_features=4096, out_features=4096, bias=True)
    )
  )
  (mag_mlp): MLP(
    (net): Sequential(
      (0): Linear(in_features=4864, out_features=256, bias=True)
      (1): BatchNorm1d(256, eps=1e-05, momentum=0.1, affine=True, track_running_stats=True)
      (2): ReLU(inplace=True)
      (3): Linear(in_features=256, out_features=128, bias=True)
      (4): BatchNorm1d(128, eps=1e-05, momentum=0.1, affine=True, track_running_stats=True)
      (5): ReLU(inplace=True)
      (6): Linear(in_features=128, out_features=64, bias=True)
      (7): BatchNorm1d(64, eps=1e-05, momentum=0.1, affine=True, track_running_stats=True)
      (8): ReLU(inplace=True)
      (9): Linear(in_features=64, out_features=1, bias=True)
      (10): ReLU()
    )
  )
)
[01:00:30.468759] Params (M): 73.03
wandb: Currently logged in as: habib-slim (shapewalk). Use `wandb login --relogin` to force relogin
wandb: wandb version 0.16.0 is available!  To upgrade, please run:
wandb:  $ pip install wandb --upgrade
wandb: Tracking run with wandb version 0.15.12
wandb: Run data is saved locally in /ibex/user/slimhy/Shape2VecSet/wandb/run-20231108_010035-2ow4n04u
…
