…
    "rank": 0,
    "resume": "",
    "resume_full_weights": false,
    "resume_weights": false,
    "seed": 0,
    "start_epoch": 0,
    "text_model_name": "bert-base-uncased",
    "use_adam": false,
    "use_clip": false,
    "use_embeds": true,
    "valid_step": 5,
    "wandb_id": null,
    "warmup_epochs": 40,
    "weight_decay": 0.05,
    "world_size": 4
}
[14:39:44.713907] Job dir: /ibex/user/slimhy/Shape2VecSet/code
[14:39:44.714942] |Train| size = [228000]
[14:39:44.715287] |Valid| size = [2976]
[14:39:45.997390] Model = MLPLatentMapper(
  (dir_mlp): MLP(
    (net): Sequential(
      (0): Linear(in_features=4864, out_features=4096, bias=True)
      (1): BatchNorm1d(4096, eps=1e-05, momentum=0.1, affine=True, track_running_stats=True)
      (2): ReLU(inplace=True)
      (3): Dropout(p=0.2, inplace=False)
      (4): Linear(in_features=4096, out_features=4096, bias=True)
      (5): BatchNorm1d(4096, eps=1e-05, momentum=0.1, affine=True, track_running_stats=True)
      (6): ReLU(inplace=True)
      (7): Dropout(p=0.2, inplace=False)
      (8): Linear(in_features=4096, out_features=4096, bias=True)
      (9): BatchNorm1d(4096, eps=1e-05, momentum=0.1, affine=True, track_running_stats=True)
      (10): ReLU(inplace=True)
      (11): Dropout(p=0.2, inplace=False)
      (12): Linear(in_features=4096, out_features=4096, bias=True)
      (13): BatchNorm1d(4096, eps=1e-05, momentum=0.1, affine=True, track_running_stats=True)
      (14): ReLU(inplace=True)
      (15): Dropout(p=0.2, inplace=False)
      (16): Linear(in_features=4096, out_features=4096, bias=True)
      (17): BatchNorm1d(4096, eps=1e-05, momentum=0.1, affine=True, track_running_stats=True)
      (18): ReLU(inplace=True)
      (19): Dropout(p=0.2, inplace=False)
      (20): Linear(in_features=4096, out_features=4096, bias=True)
      (21): BatchNorm1d(4096, eps=1e-05, momentum=0.1, affine=True, track_running_stats=True)
      (22): ReLU(inplace=True)
      (23): Dropout(p=0.2, inplace=False)
      (24): Linear(in_features=4096, out_features=4096, bias=True)
      (25): BatchNorm1d(4096, eps=1e-05, momentum=0.1, affine=True, track_running_stats=True)
      (26): ReLU(inplace=True)
      (27): Dropout(p=0.2, inplace=False)
      (28): Linear(in_features=4096, out_features=4096, bias=False)
    )
  )
  (mag_mlp): MLP(
    (net): Sequential(
      (0): Linear(in_features=4864, out_features=256, bias=True)
      (1): BatchNorm1d(256, eps=1e-05, momentum=0.1, affine=True, track_running_stats=True)
      (2): ReLU(inplace=True)
      (3): Dropout(p=0.2, inplace=False)
      (4): Linear(in_features=256, out_features=128, bias=True)
      (5): BatchNorm1d(128, eps=1e-05, momentum=0.1, affine=True, track_running_stats=True)
      (6): ReLU(inplace=True)
      (7): Dropout(p=0.2, inplace=False)
      (8): Linear(in_features=128, out_features=64, bias=True)
      (9): BatchNorm1d(64, eps=1e-05, momentum=0.1, affine=True, track_running_stats=True)
      (10): ReLU(inplace=True)
      (11): Dropout(p=0.2, inplace=False)
      (12): Linear(in_features=64, out_features=1, bias=False)
    )
  )
)
[14:39:45.998008] Params (M): 138.74
wandb: Currently logged in as: habib-slim (shapewalk). Use `wandb login --relogin` to force relogin
wandb: wandb version 0.16.0 is available!  To upgrade, please run:
wandb:  $ pip install wandb --upgrade
wandb: Tracking run with wandb version 0.15.12
wandb: Run data is saved locally in /ibex/user/slimhy/Shape2VecSet/wandb/run-20231113_143947-lw7vus19
…
