…
    "rank": 0,
    "resume": "",
    "resume_full_weights": false,
    "resume_weights": false,
    "seed": 0,
    "start_epoch": 0,
    "text_model_name": "bert-base-uncased",
    "use_adam": false,
    "use_clip": false,
    "use_embeds": true,
    "valid_step": 5,
    "wandb_id": null,
    "warmup_epochs": 40,
    "weight_decay": 0.05,
    "world_size": 4
}
[21:39:09.859477] Job dir: /ibex/user/slimhy/Shape2VecSet/code
[21:39:09.860155] |Train| size = [228000]
[21:39:09.860180] |Valid| size = [2976]
[21:39:09.894850] Model = MLPLatentMapperBottlenecked(
  (editor): MLP(
    (net): Sequential(
      (0): Linear(in_features=1024, out_features=1024, bias=True)
      (1): BatchNorm1d(1024, eps=1e-05, momentum=0.1, affine=True, track_running_stats=True)
      (2): ReLU(inplace=True)
      (3): Dropout(p=0.1, inplace=False)
      (4): Linear(in_features=1024, out_features=256, bias=True)
      (5): BatchNorm1d(256, eps=1e-05, momentum=0.1, affine=True, track_running_stats=True)
      (6): ReLU(inplace=True)
      (7): Dropout(p=0.1, inplace=False)
      (8): Linear(in_features=256, out_features=256, bias=True)
      (9): BatchNorm1d(256, eps=1e-05, momentum=0.1, affine=True, track_running_stats=True)
      (10): ReLU(inplace=True)
      (11): Dropout(p=0.1, inplace=False)
      (12): Linear(in_features=256, out_features=256, bias=False)
    )
  )
  (shape_encoder): MLP(
    (net): Sequential(
      (0): Linear(in_features=256, out_features=256, bias=True)
      (1): BatchNorm1d(256, eps=1e-05, momentum=0.1, affine=True, track_running_stats=True)
      (2): ReLU(inplace=True)
      (3): Dropout(p=0.1, inplace=False)
      (4): Linear(in_features=256, out_features=256, bias=True)
    )
  )
  (mag_mlp): MLP(
    (net): Sequential(
      (0): Linear(in_features=1024, out_features=256, bias=True)
      (1): BatchNorm1d(256, eps=1e-05, momentum=0.1, affine=True, track_running_stats=True)
      (2): ReLU(inplace=True)
      (3): Linear(in_features=256, out_features=128, bias=True)
      (4): BatchNorm1d(128, eps=1e-05, momentum=0.1, affine=True, track_running_stats=True)
      (5): ReLU(inplace=True)
      (6): Linear(in_features=128, out_features=64, bias=True)
      (7): BatchNorm1d(64, eps=1e-05, momentum=0.1, affine=True, track_running_stats=True)
      (8): ReLU(inplace=True)
      (9): Linear(in_features=64, out_features=1, bias=True)
      (10): ReLU()
    )
  )
)
[21:39:09.894891] Params (M): 1.88
wandb: Currently logged in as: habib-slim (shapewalk). Use `wandb login --relogin` to force relogin
wandb: - Waiting for wandb.init()...wandb: \ Waiting for wandb.init()...wandb: wandb version 0.16.0 is available!  To upgrade, please run:
wandb:  $ pip install wandb --upgrade
wandb: Tracking run with wandb version 0.15.12
…
