…
    "pin_mem": true,
    "rank": 0,
    "resume": "",
    "resume_full_weights": false,
    "resume_weights": false,
    "seed": 0,
    "start_epoch": 0,
    "text_model_name": "bert-base-uncased",
    "use_adam": false,
    "use_clip": false,
    "use_embeds": true,
    "wandb_id": null,
    "warmup_epochs": 40,
    "weight_decay": 0.05,
    "world_size": 4
}
[12:54:49.594230] Job dir: /ibex/user/slimhy/Shape2VecSet/code
[12:54:49.608192] |Train| size = [316236]
[12:54:49.608222] |Valid| size = [4160]
[12:54:49.715109] Model = NeuralListener(
  (shape_encoder): MLP(
    (net): Sequential(
      (0): Linear(in_features=4096, out_features=512, bias=True)
      (1): BatchNorm1d(512, eps=1e-05, momentum=0.1, affine=True, track_running_stats=True)
      (2): ReLU(inplace=True)
      (3): Linear(in_features=512, out_features=512, bias=True)
    )
  )
  (proj_ft): Linear(in_features=768, out_features=512, bias=True)
  (predictor): MLP(
    (net): Sequential(
      (0): Linear(in_features=1536, out_features=512, bias=True)
      (1): BatchNorm1d(512, eps=1e-05, momentum=0.1, affine=True, track_running_stats=True)
      (2): ReLU(inplace=True)
      (3): Dropout(p=0.2, inplace=False)
      (4): Linear(in_features=512, out_features=256, bias=True)
      (5): BatchNorm1d(256, eps=1e-05, momentum=0.1, affine=True, track_running_stats=True)
      (6): ReLU(inplace=True)
      (7): Dropout(p=0.2, inplace=False)
      (8): Linear(in_features=256, out_features=128, bias=True)
      (9): BatchNorm1d(128, eps=1e-05, momentum=0.1, affine=True, track_running_stats=True)
      (10): ReLU(inplace=True)
      (11): Dropout(p=0.2, inplace=False)
      (12): Linear(in_features=128, out_features=1, bias=True)
    )
  )
)
[12:54:49.715174] Params (M): 3.71
wandb: Currently logged in as: habib-slim (shapewalk). Use `wandb login --relogin` to force relogin
wandb: wandb version 0.16.0 is available!  To upgrade, please run:
wandb:  $ pip install wandb --upgrade
wandb: Tracking run with wandb version 0.15.12
wandb: Run data is saved locally in /ibex/user/slimhy/Shape2VecSet/wandb/run-20231108_125456-0cmszz5m
…
